best_model.pth (torch, 364967 bytes, 20 tensors)

weight f4 [20, 1, 5, 5]
0	0xbeaa3512	-0.33243614
1	0x3e6bb3be	0.23017785
2	0x3e4ad0b7	0.19806181
3	0x3db81c72	0.089898005
4	0xbd6c80c3	-0.057739984
5	0xbe0ffb8c	-0.14060801
6	0x3df843a8	0.121222794
7	0x3df116ba	0.11771913
8	0xbe07a6c6	-0.13247213
9	0xbeb9a6c0	-0.36260033
10	0xbe164769	-0.14675678
11	0xbe18ab05	-0.14908989
12	0xbe4c986b	-0.19980018
13	0x3ded8afd	0.115987755
14	0xbe54f230	-0.20795512
15	0xbddba79c	-0.10725328
16	0x3d07893e	0.03308987
17	0xbe8a66ce	-0.2703156
18	0xbd3cefc7	-0.046127107
19	0xbe3e92b2	-0.18610647
20	0xbdc0ea02	-0.094196334
21	0x3e196216	0.14978823
22	0x3e141895	0.14462502
23	0x3da8ad96	0.08236234
24	0xbe187206	-0.14887246
25	0xbe690cc2	-0.22758773
26	0x3eb1ba43	0.3471242
27	0xbd24815b	-0.040162425
28	0x3dec7b96	0.1154701
29	0xbe694bc3	-0.22782807
30	0xbdf1cbd6	-0.11806457
31	0x3e91e41e	0.28494352
32	0x3d5ac298	0.053408235
33	0x3dc57dc8	0.096431315
34	0xbd30db1c	-0.04317771
35	0xbe463005	-0.19354255
36	0xbce09e9c	-0.02741938
37	0xbd9421bc	-0.07232997
38	0xbe0b96d0	-0.13631749
39	0xbe5239b3	-0.20529823
40	0xbe97735b	-0.29580197
41	0x3dafbeee	0.08581339
42	0x3e0ccaf1	0.13749291
43	0x3d34cbf7	0.04413983
44	0xbe2bfc84	-0.16795546
45	0xbea5e935	-0.32404485
46	0xbdd2e471	-0.10297478
47	0x3c9557e8	0.018230394
48	0xbc1c13b9	-0.009526187
49	0xbe76c3ad	-0.24098082
50	0xbe43dd00	-0.19127274
51	0x3eb0c950	0.3452859
52	0x3e747db6	0.2387608
53	0x3d98196d	0.074267246
54	0xbdf59e55	-0.1199309
55	0xbe4df4e2	-0.20112947
56	0x3d142099	0.0361639
57	0xbda1e7f7	-0.07905572
58	0x3dd15640	0.10221529
59	0xbe296899	-0.16543807
60	0xbe07d258	-0.13263834
61	0x3e6a4a44	0.22879893
62	0xbd84396f	-0.06456267
63	0xbe04d2d7	-0.12971054
64	0xbe371283	-0.17878155
65	0xbe526001	-0.20544435
66	0xbcea6ae6	-0.028615426
67	0xbe14c538	-0.14528358
68	0x3dd8b414	0.10581222
69	0xbe962b43	-0.2932988
70	0xbe8bb632	-0.27287441
71	0x3cab6f0b	0.020926973
72	0x3dcec5a0	0.10096288
73	0x3d7da3a0	0.061923623
74	0xbe14daea	-0.14536634
75	0xbdeebd6c	-0.11657223
76	0x3e26281c	0.16226238
77	0x3d8e2e46	0.0694242
78	0xbde3012d	-0.11084209
79	0xbdb2e3d6	-0.087348625
80	0xbeaf5809	-0.34246853
81	0x3dc38a86	0.095479056
82	0x3e75350e	0.2394602
83	0x3dc00a62	0.0937698
84	0x3e4ff7fa	0.2030944
85	0xbe5ca594	-0.21547538
86	0xbe4216e6	-0.18954048
87	0xbce5cd84	-0.028052099
88	0x3dc72f2b	0.097257935
89	0xbe44383e	-0.1916208
90	0xbe576c07	-0.21037303
91	0x3dd9211b	0.106020175
92	0xbe255ed3	-0.16149454
93	0x3e07338c	0.13203257
94	0xbe69b33d	-0.2282228
95	0xbe880979	-0.26569727
96	0x3c7cde4b	0.015433858
97	0xbd3989b6	-0.045297347
98	0xbc5ce708	-0.0134828165
99	0xbe60524f	-0.21906398
100	0x3e7e57c4	0.24838167
101	0xbe56dab0	-0.2098186
102	0xbd7efde4	-0.062253848
103	0xbda46417	-0.08026903
104	0x3da52ee8	0.08065587
105	0x3e88199c	0.26582038
106	0xbeb0984a	-0.34491187
107	0xbdd275a0	-0.102763414
108	0xbd38e6ef	-0.04514211
109	0x3e4edbf3	0.20201091
110	0x3d49af52	0.049239464
111	0xbe60bc51	-0.21946837
112	0xbd9891c2	-0.07449676
113	0x3ca5b874	0.020229556
114	0x3e516296	0.20447764
115	0xbc55210c	-0.013008367
116	0xbe29a67d	-0.16567416
117	0xbd9183ba	-0.07105203
118	0xbbda6345	-0.006664666
119	0xbb324ff2	-0.0027208296
120	0x3e7776b8	0.24166381
121	0xbe3f2ce2	-0.18669465
122	0x3db52266	0.088444516
123	0xbdb61186	-0.08890061
124	0x3d4441ba	0.047914244
125	0xbe8ac749	-0.27105168
126	0x3e9e8eee	0.30968422
127	0x3e383225	0.17987879
128	0x3d407c10	0.046993315
129	0x3d8cf910	0.068834424
130	0xbe80b526	-0.25138205
131	0x3c8bf5d8	0.017085
132	0x3da60d6b	0.08108028
133	0x3d780d73	0.0605597
134	0x3e33a162	0.17542031
135	0xbe53e949	-0.2069446
136	0xbdf45c92	-0.11931719
137	0xbe254dc9	-0.16142954
138	0xbd8806c7	-0.06641918
139	0xbe1b6930	-0.15176845
140	0xbe871b4c	-0.26388013
141	0x3e90d4b1	0.2828727
142	0x3ca4f4ae	0.020136204
143	0xbd3c2423	-0.0459329
144	0xbd62da1e	-0.055383794
145	0xbe87f09f	-0.26550767
146	0xbda670c9	-0.08126981
147	0x3cba9db4	0.022780277
148	0x3d8bd007	0.068267874
149	0xbdb22cdb	-0.08699962
150	0xbe7f8749	-0.24953951
151	0x3e203363	0.15644602
152	0x3e323267	0.1740204
153	0x3e186869	0.1488358
154	0xbde43494	-0.11142841
155	0xbd878bad	-0.06618438
156	0x3d930885	0.07179359
157	0xbd598506	-0.053105377
158	0xbe053bf7	-0.13011156
159	0xbdfa8bf4	-0.12233725
160	0xbe05b112	-0.13055828
161	0x3e42813e	0.18994614
162	0xbcb0dd1b	-0.021589806
163	0x3df2e026	0.11859159
164	0xbdd7d5a8	-0.105387986
165	0xbe8f1e48	-0.2795279
166	0xbdd17ec8	-0.1022926
167	0xbe2c0580	-0.16798973
168	0x3d936e48	0.07198769
169	0xbd788a38	-0.06067869
170	0xbe942140	-0.28931618
171	0x3e8137a8	0.25237775
172	0x3de9fd40	0.11425257
173	0x3dbefb18	0.09325236
174	0xbe01d228	-0.12677824
175	0xbe4c542f	-0.19953988
176	0xbda814fd	-0.08207128
177	0x3dc96f67	0.098357014
178	0x3bc688d4	0.0060587917
179	0xbda87151	-0.082247384
180	0xbe9e8540	-0.30961037
181	0x3e146def	0.14495061
182	0xbdf83b96	-0.1212074
183	0x3db60c1c	0.088890284
184	0xbe561a9a	-0.20908585
185	0xbece4360	-0.40285778
186	0x3e9c76cf	0.30559394
187	0xbce16528	-0.027514055
188	0x3dcb2f3a	0.09921117
189	0xbd9bce1b	-0.07607671
190	0x3c55cb4e	0.01304896
191	0x3e2ca7d8	0.16860902
192	0x3de901f4	0.11377326
193	0xbe27aecf	-0.16375278
194	0xbe25ebc9	-0.16203226
195	0xbea2d9da	-0.31806833
196	0x3e3b5d92	0.18297413
197	0xbddd0a9f	-0.107930414
198	0x3de506ec	0.11182961
199	0xbdf789aa	-0.12086804
200	0xbe25f4bb	-0.16206639
201	0xbdb0113f	-0.085970394
202	0x3d8ea4ca	0.06965025
203	0x3e17cd9b	0.14824526
204	0x3e1e46dd	0.1545672
205	0xbe473826	-0.19455013
206	0xbe062bb2	-0.13102606
207	0x3bdb5f1a	0.0066946866
208	0x3d5e407f	0.054260727
209	0xbd9e950f	-0.077432744
210	0xbe1e186c	-0.15439004
211	0x3e736e94	0.23772651
212	0x3b4dc9ff	0.0031400917
213	0xbda470ff	-0.08029365
214	0x3bff44bf	0.0077901776
215	0xbe97e392	-0.2966581
216	0x3e1d2aee	0.15348408
217	0xbe1176d9	-0.14205493
218	0x3e1a3646	0.15059766
219	0x3dbb132b	0.091345154
220	0xbe29c82b	-0.16580264
221	0x3df5edc3	0.1200824
222	0x3dbc2f19	0.09188671
223	0x3e4cfc27	0.20018063
224	0x3d70bb17	0.058772173
225	0xbe238da6	-0.15972003
226	0xbde785be	-0.11304806
227	0xbe9baef4	-0.30406916
228	0x3e76ae2e	0.24089882
229	0xbde0be45	-0.10973791
230	0xbe145d5c	-0.14488739
231	0xbe65a340	-0.22425556
232	0xbdc61e00	-0.09673691
233	0x3de992b6	0.11404936
234	0xbdf3f44e	-0.11911832
235	0xbe04f819	-0.12985267
236	0x3cfb154f	0.03064981
237	0x3e194180	0.14966393
238	0xbcd4e965	-0.025990197
239	0x3dbd3b6a	0.09239848
240	0xbde2292c	-0.11043009
241	0x3d68602f	0.056732353
242	0x3cad24ba	0.021135677
243	0xbd489b84	-0.048976436
244	0x3d7fcc29	0.06245056
245	0xbe27c873	-0.16385059
246	0x3dc7a78f	0.09748756
247	0x3c1b82af	0.009491607
248	0x3e25a383	0.16175656
249	0x3dadcdf4	0.08486548
250	0xbcf825a1	-0.03029138
251	0xbcda6221	-0.02665812
252	0xbcbe3d61	-0.023222627
253	0xbe746adb	-0.23868887
254	0x3e72ca4b	0.23709981
255	0xbd0d40d3	-0.03448565

bias f4 [20]
0	0xbdf0b241	-0.11752749
1	0x3cbd2642	0.023089532
2	0xbe350abf	-0.1767988
3	0x3e1bc57a	0.1521205
4	0xbdc4a7a7	-0.0960229
5	0xbde60a0f	-0.11232387
6	0x3e101a01	0.1407242
7	0xbded868f	-0.11597931
8	0xbdd1b21c	-0.1023905
9	0x3dce7268	0.10080415
10	0x3ca74e2d	0.02042302
11	0xbdb0f403	-0.086402915
12	0x3de49aed	0.11162362
13	0x3d107d10	0.03527552
14	0xbc498fd8	-0.012302361
15	0x3df39389	0.118933745
16	0x3ca1103d	0.019661063
17	0xbe021741	-0.12704183
18	0x3e0c6105	0.13708885
19	0x3e3954b9	0.18098725

weight f4 [20]
0	0x3f7a2e9b	0.97727364
1	0x3f74a729	0.95567566
2	0x3f865a5b	1.0496324
3	0x3f753c71	0.9579535
4	0x3f90a651	1.1300756
5	0x3f6133f8	0.87969923
6	0x3f74127b	0.953407
7	0x3f8175e5	1.0114104
8	0x3f83b566	1.0289733
9	0x3f6c2366	0.92241514
10	0x3f87b074	1.0600724
11	0x3f69b93c	0.9129827
12	0x3f7e1719	0.99253994
13	0x3f7583be	0.9590415
14	0x3f987e39	1.191352
15	0x3f7cd1c6	0.9875759
16	0x3f66ed77	0.9020609
17	0x3f88d3f1	1.0689679
18	0x3f6c1d18	0.92231894
19	0x3f7504e6	0.957106

bias f4 [20]
0	0xbe47704f	-0.19476436
1	0xbe867354	-0.26259863
2	0xbddfdabc	-0.10930392
3	0xbd969bf8	-0.073539674
4	0xbdaecea1	-0.08535505
5	0xbd4caf54	-0.049971893
6	0xbd8cbbd3	-0.06871762
7	0xbe146837	-0.1449288
8	0x3b774983	0.0037733025
9	0xbd77f7a1	-0.06053889
10	0xbc02efe4	-0.007991765
11	0xbca273fd	-0.019830698
12	0xbce01224	-0.0273524
13	0xbe85b20c	-0.261124
14	0xbd7e3224	-0.062059537
15	0xbe500e72	-0.2031801
16	0xbaef7d1a	-0.0018271536
17	0xb90acf6a	-0.00013237973
18	0xbe098367	-0.13429032
19	0xbe568c3d	-0.20951934

running_mean f4 [20]
0	0xbfaed3dc	-1.3658404
1	0xbf8854cf	-1.0650882
2	0xbf275f22	-0.65379536
3	0xbf315266	-0.69266355
4	0xbff08df7	-1.8793324
5	0xbf430081	-0.76172644
6	0x3ef2cfb5	0.47424093
7	0xbf91d73e	-1.1393812
8	0x3fcd8d43	1.6058735
9	0x3ec7061c	0.3887185
10	0xc087da28	-4.2453804
11	0xbfc81564	-1.5631528
12	0x3f7cbbdd	0.98724157
13	0xbf97e884	-1.1867833
14	0xbfece352	-1.8506873
15	0xbfc63bf2	-1.5487044
16	0x3caad137	0.020851715
17	0x3ee4aa8e	0.44661373
18	0x3f27e8f8	0.6558986
19	0xc004c3eb	-2.074458

running_var f4 [20]
0	0x40e293f1	7.0805593
1	0x4118daca	9.553415
2	0x414f8ad4	12.971394
3	0x41624d56	14.143881
4	0x41706afb	15.026118
5	0x40f85c8d	7.7612977
6	0x4198c357	19.09538
7	0x4122ea0d	10.182141
8	0x4211d474	36.457474
9	0x41f5603c	30.67199
10	0x42b97be0	92.74194
11	0x41b29fd1	22.328035
12	0x41d9f8b3	27.246435
13	0x410f0b17	8.9402075
14	0x415e3c56	13.88973
15	0x40f05f79	7.5116544
16	0x416d59a0	14.834381
17	0x410e4d57	8.893882
18	0x4181ba79	16.216051
19	0x41f00ae9	30.005327

weight f4 [120, 640]
0	0xbcaace09	-0.020850198
1	0xbc8e1d0f	-0.01734784
2	0x3c797002	0.015224459
3	0xbd0a16c3	-0.033713114
4	0xbcebbf4f	-0.028777746
5	0x3d107fc2	0.03527809
6	0xbc106433	-0.008812952
7	0x3b8744d3	0.0041280775
8	0xbc991ce7	-0.01869054
9	0xbd53e091	-0.051727835
10	0xbd1fcf51	-0.03901607
11	0xbd286b0d	-0.041117717
12	0xbe2a09fd	-0.16605373
13	0xbcc6e02c	-0.024276815
14	0xbd9c4caf	-0.07631814
15	0xbd990c3d	-0.074730374
16	0xbd777784	-0.060416713
17	0xbcc7f480	-0.024408579
18	0xbda4a83e	-0.08039902
19	0xbd531c41	-0.051540617
20	0xbd758e8d	-0.0599504
21	0xbe20edc2	-0.15715697
22	0xbd0e1455	-0.03468736
23	0xbd4e06da	-0.050299503
24	0xbd9f496b	-0.07777675
25	0xbd411058	-0.047134727
26	0xbe0c9187	-0.1372739
27	0xbda1bff3	-0.078979395
28	0xbe013d86	-0.12621126
29	0x3b4e8770	0.0031513833
30	0x3c9b6429	0.018968659
31	0xbdd930f6	-0.10605042
32	0xbc91cd42	-0.01779807
33	0xbd848a14	-0.06471649
34	0x3cf58be4	0.029973932
35	0xbdea9f78	-0.114561975
36	0x3be93a72	0.007117563
37	0xbda90ebe	-0.08254765
38	0x3d1017a4	0.035178795
39	0xbda505c8	-0.08057743
40	0xbdabe8f1	-0.083940394
41	0xbc324522	-0.01088074
42	0x3c96a1c8	0.01838769
43	0xbe2db7dd	-0.1696467
44	0xbd8df21c	-0.06930944
45	0x3bcf41f8	0.0063250028
46	0xbda7ef47	-0.081999354
47	0xbda3d6d3	-0.07999959
48	0xbd9b9af4	-0.07597914
49	0xbdbfe50c	-0.09369859
50	0xbddaeddd	-0.106899
51	0xbdf02119	-0.11725063
52	0x3ba2f64a	0.0049732076
53	0xbdc9e260	-0.09857631
54	0xbbb7f68d	-0.005614108
55	0xbd164720	-0.036688924
56	0xbd8a2424	-0.067451745
57	0xbd5ba671	-0.053625528
58	0xbd257241	-0.040392164
59	0xbcce3f8a	-0.025176782
60	0xbe0677db	-0.13131659
61	0x3cac5869	0.021038251
62	0xbd63bee7	-0.05560198
63	0x3b8a72d4	0.0042251144
64	0xbe2b7515	-0.16743882
65	0xbcf18d7b	-0.029486408
66	0xbcd39af6	-0.025830727
67	0xbdaebf21	-0.08532549
68	0xbd5b91b8	-0.053605765
69	0x3cbff4b4	0.023432113
70	0xbd9d5a3e	-0.07683228
71	0x3d8028d6	0.06257789
72	0xbc1b2903	-0.009470227
73	0xbdaa0351	-0.08301414
74	0xbde927e0	-0.11384559
75	0xbd9eafed	-0.07748399
76	0xbd92251b	-0.071359836
77	0xbdbed3de	-0.09317754
78	0xbdbe6f34	-0.09298554
79	0xbce34ee7	-0.027747585
80	0xbd76c192	-0.060243197
81	0xbda3cb77	-0.07997792
82	0xbca00e2b	-0.019538006
83	0xbdc6d7fe	-0.09709166
84	0xbc82e577	-0.015978558
85	0xbd093588	-0.033498317
86	0xbd6a05dc	-0.057134494
87	0xbcfcd98e	-0.030865457
88	0xbd432d23	-0.047650468
89	0xbd289466	-0.04115715
90	0xbdaeb814	-0.08531204
91	0xbdc1f11b	-0.09469815
92	0xbcc3e1a5	-0.023911307
93	0xbc61e77f	-0.013788103
94	0x3c79fb96	0.015257737
95	0xbdd564f7	-0.10419648
96	0xbb299019	-0.0025873242
97	0xbd95f959	-0.0732295
98	0x3a020730	0.00049601775
99	0xbbbcc64e	-0.0057609444
100	0xbcaaae6c	-0.020835124
101	0x3d53494a	0.051583566
102	0xbabe2722	-0.0014507512
103	0xbd0fef9f	-0.03514063
104	0xbcd127e0	-0.02553171
105	0x3c71a25f	0.014748185
106	0xbd59a383	-0.053134453
107	0xbdd16281	-0.10223866
108	0xbe127f0d	-0.14306279
109	0xbdb657bf	-0.08903455
110	0xbdb9d4c6	-0.090737864
111	0xbd334fa9	-0.04377714
112	0xbd838487	-0.06421762
113	0xbd1d8748	-0.038459092
114	0xbd38f628	-0.045156628
115	0xbcd639fa	-0.026150692
116	0xbd49d20f	-0.049272593
117	0xbda85af5	-0.08220474
118	0xbddc87eb	-0.10768112
119	0x3d08b56a	0.033376135
120	0xbdb4ff47	-0.08837753
121	0xbd466419	-0.048435304
122	0xbcfbd061	-0.030739011
123	0x3beaada4	0.007161813
124	0xbdfe9508	-0.12430769
125	0xbd1f194e	-0.03884249
126	0x3d991d9c	0.07476351
127	0xbdadb914	-0.084825665
128	0x3da61a4c	0.081104845
129	0x3d1db36b	0.038501184
130	0x3dab59e0	0.08366752
131	0x3d157180	0.036485195
132	0xbb3956b2	-0.0028280434
133	0x3d8734af	0.066018455
134	0x3cb41f44	0.021987565
135	0x3da68c33	0.0813221
136	0x3d7c7a4e	0.061640076
137	0x3e240f6b	0.16021506
138	0x3d9f4431	0.07776678
139	0x3cb1a213	0.021683728
140	0xbc6f0820	-0.0145893395
141	0x3d0a52ed	0.03377049
142	0x3dd7a8ea	0.10530265
143	0x3e7f4cbf	0.2493162
144	0x3e275fef	0.1634519
145	0x3e7505cf	0.23927997
146	0x3d973ac9	0.07384259
147	0x3d922124	0.07135227
148	0x3cfc9f7a	0.030837763
149	0xbd331b89	-0.04372743
150	0x3b73df24	0.003721186
151	0x3ca09781	0.019603493
152	0x3d73b84e	0.05950194
153	0xbb350adf	-0.0027624888
154	0x3d13c704	0.036078468
155	0x3dd9eba6	0.106406495
156	0x3bb0739e	0.0053848764
157	0x3c47115e	0.012150137
158	0x3df42970	0.11921966
159	0x3df26a7f	0.11836719
160	0xbd94786b	-0.072495304
161	0xbd52feb9	-0.051512454
162	0x3d953a7b	0.07286545
163	0x3d400717	0.04688176
164	0xb9e89daf	-0.00044367972
165	0x3d81a569	0.063303776
166	0x3cdb9fc9	0.02680959
167	0x3da233c6	0.07920031
168	0x3cfd05a1	0.030886473
169	0xbd151bb7	-0.036403384
170	0xbcf5ed5e	-0.030020412
171	0xbd9103f7	-0.07080834
172	0xbd73239a	-0.059360124
173	0x3aae33d7	0.0013290596
174	0xbda19422	-0.07889582
175	0xbd29c560	-0.041447997
176	0xbc8e6641	-0.017382743
177	0xbcd47ebe	-0.025939342
178	0xbd7d4606	-0.061834358
179	0xbd457a07	-0.048212077
180	0xbdba3488	-0.09092051
181	0xbdf33f67	-0.118773274
182	0xbd88a158	-0.06671399
183	0xbcd861ab	-0.02641376
184	0xbca318e1	-0.019909324
185	0xbd205ae2	-0.039149173
186	0xbca001a1	-0.019532027
187	0xbccfa7f5	-0.025348643
188	0xbbb44fcd	-0.005502677
189	0xbdc1c8dd	-0.0946214
190	0x3c8cf578	0.017206892
191	0x3d70e1d6	0.058809124
192	0xbd954866	-0.072891995
193	0xbe069f38	-0.13146675
194	0xbda68a88	-0.081318915
195	0xbca8a139	-0.02058469
196	0xbd11d27d	-0.035601128
197	0x3d3017be	0.042991392
198	0x3b34f489	0.0027611575
199	0xbc875c60	-0.01652354
200	0xbd563813	-0.05229957
201	0xbd205348	-0.039141923
202	0xbd934767	-0.07191353
203	0xbc8b3249	-0.016991751
204	0xbe0888ae	-0.13333389
205	0xbd123dd2	-0.035703488
206	0xbceb5ffd	-0.028732294
207	0xbdad18a3	-0.08451965
208	0xbd093938	-0.033501834
209	0xbd5dfa71	-0.054193918
210	0xbe262aa7	-0.16227208
211	0xbd831f53	-0.06402459
212	0xbb55b13e	-0.0032606865
213	0xbd769380	-0.06019926
214	0xbdc97d83	-0.098383926
215	0xbd2b2d15	-0.04179104
216	0xbdba8721	-0.09107805
217	0xbda44287	-0.080205016
218	0xbd9ae52d	-0.07563243
219	0x3b42f896	0.002975022
220	0x3cabb50d	0.020960355
221	0xbb3c1d7c	-0.0028704097
222	0xbd097c8a	-0.033566035
223	0xbdf61ade	-0.12016843
224	0xbcc56992	-0.024098191
225	0xbd457f23	-0.04821695
226	0xbe0f348f	-0.13984893
227	0xbd92b50c	-0.07163438
228	0x3ced61cc	0.028977297
229	0xbd0b5d6c	-0.03402464
230	0x3cf06f6f	0.02935001
231	0xbd654403	-0.055973064
232	0xbda514e1	-0.08060623
233	0xbc0775da	-0.008267844
234	0xbdb77740	-0.08958292
235	0xbca954b1	-0.020670267
236	0xbd2777c6	-0.04088571
237	0xbe57a754	-0.21059924
238	0xbddd8ae5	-0.10817508
239	0xbe014b9a	-0.12626496
240	0x3b7069f4	0.0036684247
241	0xbd619beb	-0.055080336
242	0xbd740d69	-0.0595831
243	0xbd9cf236	-0.076633856
244	0x3d62b49f	0.055348035
245	0xbc95dac3	-0.01829279
246	0x3d56f8b8	0.05248329
247	0xbd91d1b8	-0.07120079
248	0xbda2d9fc	-0.079517335
249	0xbd3cd30c	-0.046099707
250	0xbd18effa	-0.037338234
251	0xbddc8d04	-0.10769084
252	0xbdbe908f	-0.09304916
253	0xbcbe8a64	-0.02325935
254	0xbd061571	-0.032735292
255	0xbd4d0ab4	-0.050059035

bias f4 [120]
0	0x3c25f2a2	0.010128649
1	0xbd175766	-0.036948584
2	0xbc3e18a7	-0.011602557
3	0x3d00bc63	0.03142966
4	0xbd01b0af	-0.03166264
5	0x3d13c55d	0.036076892
6	0xbb9d349d	-0.0047975318
7	0x3be168f5	0.006878967
8	0xbd00c119	-0.031434152
9	0xbca68cc7	-0.0203308
10	0x3bbfc9c3	0.0058529093
11	0x3d19a30e	0.037509017
12	0x3d12c458	0.03583178
13	0xbd0b1e72	-0.03396458
14	0x3d0d40c0	0.03448558
15	0xbcac4875	-0.021030644
16	0xbd1a8b72	-0.03773064
17	0xbcd4f197	-0.025994105
18	0x3cdcb8f9	0.02694367
19	0xbc8a716f	-0.016899792
20	0xbcbdcc1d	-0.023168618
21	0x3cf5560b	0.029948255
22	0x3c8da9d5	0.017292896
23	0x3ceea394	0.029130735
24	0x3c655c02	0.013998987
25	0x3c8332f0	0.0160155
26	0x3c908ef9	0.0176463
27	0x3d04c4f3	0.032414388
28	0xbbf3cf4a	-0.0074404823
29	0xbd133989	-0.03594354
30	0xbcae0803	-0.021244055
31	0xbc24ca19	-0.010057949
32	0x3d0f965f	0.035055514
33	0xbb46a86a	-0.0030312785
34	0xbcaebb0c	-0.021329425
35	0x3d0c843d	0.0343058
36	0x3cd5e3bf	0.026109574
37	0xbc4cc455	-0.012497981
38	0x3ca3ceb5	0.019996027
39	0x3bd378c6	0.0064536063
40	0xbc052876	-0.008127322
41	0xbc9b0ef1	-0.018928023
42	0xbceac039	-0.028656112
43	0xbccf7011	-0.025321992
44	0xbcefc945	-0.029270777
45	0x3baee9a8	0.0053379126
46	0xbc64e95a	-0.013971651
47	0xbcd2b302	-0.025720123
48	0xbbdd557a	-0.0067545744
49	0xbc379023	-0.011203798
50	0x3cdcddd0	0.026961237
51	0xbd117dd0	-0.035520375
52	0x3c9973e8	0.018732026
53	0x3c0678c9	0.008207508
54	0x3d1cdb73	0.03829522
55	0xbceea39d	-0.029130751
56	0x3d165979	0.03670642
57	0xbc559646	-0.013036316
58	0x3ae533cf	0.0017486754
59	0xbd038750	-0.032111466
60	0x3d12bb46	0.03582313
61	0x3c5cf3e8	0.013485886
62	0x3b566cac	0.0032718582
63	0xbcc374fa	-0.02385949
64	0xba29232b	-0.0006452079
65	0xbc4a5c8e	-0.012351168
66	0x3cc43647	0.023951663
67	0xbcf4a818	-0.02986531
68	0x3c822db2	0.01589093
69	0x3bf6bbc4	0.0075297076
70	0xbcc7f0be	-0.024406787
71	0x3cc96c4c	0.024587773
72	0x3c0cfd4b	0.008605312
73	0x3cf06cb7	0.029348714
74	0xbce18b51	-0.027532252
75	0xbaad6820	-0.0013229884
76	0xbc9f2a8b	-0.019429466
77	0xbc4f9396	-0.012669465
78	0x3cd6b381	0.026208641
79	0x3c8bf3fa	0.01708411
80	0x3b6aaf48	0.0035810042
81	0x3b694415	0.0035593559
82	0x3cab4058	0.020904705
83	0xbca98084	-0.020691164
84	0x3ba19b12	0.004931816
85	0xbcc93e76	-0.024565917
86	0x3bec6705	0.0072144293
87	0x3d143c87	0.036190536
88	0x380c8b0d	3.3508102e-05
89	0x3c94bd2a	0.018156607
90	0x3ca5dd46	0.020247113
91	0xbd1a2b45	-0.03763892
92	0xbc94515e	-0.018105205
93	0x3d1eed83	0.038800728
94	0x3d1aa190	0.037751734
95	0x3cf5ebe3	0.030019706
96	0x3cc90da0	0.02454263
97	0x3ca4085f	0.020023523
98	0x3c856004	0.016281135
99	0x3bc66627	0.006054658
100	0xbccbd5e7	-0.02488227
101	0x3d11c76a	0.035590567
102	0xbc369f50	-0.0111463815
103	0x3b5c19cf	0.003358472
104	0x3cbf1fc4	0.023330577
105	0x3c2dd695	0.010610242
106	0x3b5b0252	0.003341813
107	0xbd156a42	-0.03647829
108	0x3d10a7bd	0.035316218
109	0x3d115f4b	0.03549127
110	0x3cc7a01d	0.02436834
111	0xbcd83829	-0.026393967
112	0xbcfbf4ff	-0.030756472
113	0x3cdf6bba	0.027273048
114	0xbcc7d154	-0.024391808
115	0x3b11cb43	0.0022246398
116	0xbc6c6605	-0.01442862
117	0x3ca3ebd7	0.020009918
118	0x3c1fd985	0.009756451
119	0x3aaf234a	0.0013361957

weight f4 [120]
0	0x3f70ee52	0.9411365
1	0x3f70fdff	0.9413757
2	0x3f7b8105	0.98243743
3	0x3f52475e	0.8214015
4	0x3f80081c	1.0002475
5	0x3f77c547	0.96785396
6	0x3f7431a4	0.95388246
7	0x3f7a46ab	0.9776408
8	0x3f69eda4	0.91378236
9	0x3f6acde5	0.9172042
10	0x3f7f8541	0.99812704
11	0x3f7ef7c8	0.99596834
12	0x3f7343bc	0.9502523
13	0x3f71c25f	0.9443721
14	0x3f765205	0.962189
15	0x3f4fdff6	0.8120111
16	0x3f6fc5b5	0.9366105
17	0x3f7ab492	0.9793178
18	0x3f7b4dbc	0.9816549
19	0x3f86125e	1.0474355
20	0x3f66a713	0.90098685
21	0x3f79bab7	0.9755053
22	0x3f686ca6	0.90790784
23	0x3f8028a2	1.00124
24	0x3f62ddb7	0.8861956
25	0x3f67ddad	0.90572625
26	0x3f79e751	0.97618586
27	0x3f803922	1.0017436
28	0x3f5014b4	0.8128159
29	0x3f6bb217	0.9206862
30	0x3f6ae67b	0.91757935
31	0x3f784a0d	0.9698799
32	0x3f7be308	0.983933
33	0x3f57d43d	0.84308225
34	0x3f6da55a	0.9283043
35	0x3f7ff93d	0.9998968
36	0x3f4ab5bb	0.7918355
37	0x3f5319df	0.8246135
38	0x3f655fe7	0.8959946
39	0x3f57bcff	0.8427276
40	0x3f7ca20f	0.9868478
41	0x3f71abe6	0.9440292
42	0x3f57d32a	0.84306586
43	0x3f70cba5	0.94060737
44	0x3f771a2f	0.9652433
45	0x3f64a594	0.8931515
46	0x3f7dbe4c	0.99118495
47	0x3f704fc5	0.9387172
48	0x3f729a4e	0.947667
49	0x3f792304	0.97319055
50	0x3f514c22	0.81756794
51	0x3f76db63	0.9642851
52	0x3f75b9bf	0.9598655
53	0x3f7c5578	0.98567915
54	0x3f6edbd2	0.9330417
55	0x3f5de4d6	0.866773
56	0x3f56b4b7	0.838695
57	0x3f7ce2dd	0.98783666
58	0x3f81e8cd	1.014917
59	0x3f74882f	0.955203
60	0x3f4c37a2	0.7977239
61	0x3f73cc04	0.9523318
62	0x3f77b95a	0.967672
63	0x3f7256b8	0.9466357
64	0x3f676f98	0.90404654
65	0x3f791769	0.97301346
66	0x3f4b81a8	0.79494715
67	0x3f6f32c0	0.93436813
68	0x3f694fb7	0.9113726
69	0x3f7a963c	0.9788549
70	0x3f721a51	0.94571406
71	0x3f52b676	0.82309663
72	0x3f5a5f24	0.85301423
73	0x3f746260	0.9546261
74	0x3f7a2840	0.97717667
75	0x3f5bf05b	0.8591363
76	0x3f4cacd4	0.79951215
77	0x3f5c4cf3	0.86054915
78	0x3f6ada8c	0.91739726
79	0x3f801833	1.0007385
80	0x3f739380	0.9514694
81	0x3f76ea77	0.96451515
82	0x3f7a5247	0.97781795
83	0x3f52584a	0.8216597
84	0x3f7dfef2	0.9921714
85	0x3f75c2b6	0.9600023
86	0x3f6bd5ed	0.921233
87	0x3f560243	0.835972
88	0x3f741ceb	0.95356625
89	0x3f75a973	0.95961684
90	0x3f73e29e	0.95267665
91	0x3f6be514	0.9214642
92	0x3f5e7932	0.8690368
93	0x3f75c557	0.9600424
94	0x3f707c65	0.9393981
95	0x3f7cdfc7	0.9877896
96	0x3f6dfc53	0.9296314
97	0x3f81ba43	1.0134968
98	0x3f748654	0.9551747
99	0x3f74501b	0.9543473
100	0x3f7469ce	0.95473945
101	0x3f771343	0.96513766
102	0x3f5c9ebf	0.8617973
103	0x3f80a1e6	1.0049407
104	0x3f6f13fe	0.9338988
105	0x3f6543de	0.8955668
106	0x3f3956eb	0.7239825
107	0x3f799f6b	0.9750888
108	0x3f723025	0.9460471
109	0x3f788e49	0.9709211
110	0x3f7059ea	0.938872
111	0x3f7ddb70	0.9916296
112	0x3f7bb567	0.98323673
113	0x3f6ff2ed	0.9373005
114	0x3f611a96	0.8793119
115	0x3f7ea815	0.9947522
116	0x3f83c629	1.0294849
117	0x3f7679cc	0.962796
118	0x3f741021	0.9533711
119	0x3f79bc29	0.97552735

bias f4 [120]
0	0xbe987d8e	-0.2978329
1	0xbe887bb3	-0.26656875
2	0x3e8dcb1f	0.27694032
3	0x3e51693a	0.20450297
4	0x3e962634	0.29326022
5	0x3eab7579	0.33488062
6	0xbe8665e2	-0.26249605
7	0xbea18fad	-0.31554928
8	0x3e6d84c9	0.23195185
9	0xbe94f812	-0.29095513
10	0xbeae1029	-0.33996704
11	0xbe93d539	-0.28873613
12	0x3e88cc9e	0.2671861
13	0xbe9706de	-0.29497427
14	0xbe867fc9	-0.26269367
15	0xbe5a6587	-0.21327792
16	0xbe9d3d16	-0.30710667
17	0xbe9822de	-0.29714102
18	0x3e9a33b0	0.3011756
19	0xbea45103	-0.32093057
20	0x3e822021	0.25415137
21	0xbe8c3312	-0.27382714
22	0xbe87f7ef	-0.26556346
23	0xbeb12ee2	-0.3460608
24	0x3e6215cb	0.22078626
25	0xbe8c13d9	-0.27358893
26	0xbe9c5d2e	-0.3053984
27	0x3e8dc73f	0.27691075
28	0xbe4b7049	-0.19867052
29	0x3e90f602	0.2831269
30	0x3e8cd87d	0.27508917
31	0x3e9009b1	0.28132394
32	0xbe96ad63	-0.2942916
33	0x3e85666f	0.26054713
34	0xbe8af370	-0.27138853
35	0xbe94dc8f	-0.29074523
36	0xbe19de20	-0.1502614
37	0xbe270927	-0.16312085
38	0xbe692d45	-0.22771175
39	0xbe7e70bc	-0.24847692
40	0x3eacb034	0.33728182
41	0xbe9fb534	-0.31192935
42	0xbe7fce1c	-0.24980968
43	0xbe976512	-0.29569298
44	0xbe85c3de	-0.26125997
45	0xbe85de64	-0.26146233
46	0x3ead886f	0.33893153
47	0xbeb4cc72	-0.3531223
48	0x3e8b910c	0.272591
49	0x3e8eb185	0.27869812
50	0xbe82e593	-0.25565776
51	0xbe9bf8e8	-0.30463338
52	0x3e9ff94c	0.31244886
53	0xbeaba5f5	-0.33525053
54	0xbe785832	-0.24252394
55	0xbe698687	-0.22805224
56	0xbe632e64	-0.22185665
57	0xbea4153f	-0.3204746
58	0xbe953d3c	-0.2914828
59	0xbe95140f	-0.29116866
60	0x3e51ca84	0.2048741
61	0xbea18df5	-0.31553617
62	0xbe9e82fb	-0.30959305
63	0xbe83583c	-0.25653255
64	0xbe873686	-0.26408786
65	0xbe94c88a	-0.2905925
66	0x3e67d054	0.22638065
67	0x3e9e5447	0.30923674
68	0x3e99b548	0.3002112
69	0x3e9bd49b	0.30435643
70	0x3e922c8d	0.28549615
71	0xbdd0264d	-0.10163555
72	0xbde0794b	-0.10960635
73	0x3e95fdcb	0.2929519
74	0xbe89f0cd	-0.2694153
75	0x3e889cae	0.26682037
76	0xbe749c8d	-0.23887844
77	0x3e820180	0.2539177
78	0x3e7dfa47	0.24802504
79	0x3e99f1ca	0.30067283
80	0x3e84fd53	0.2597452
81	0x3e99c1ed	0.30030766
82	0x3e9d8529	0.30765656
83	0xbe6eb181	-0.233099
84	0x3e88ac5b	0.26693997
85	0x3e9f2fc8	0.31091142
86	0x3e7f39db	0.24924414
87	0x3e82e5fb	0.25566086
88	0x3e9be07a	0.304447
89	0xbe9b39cd	-0.30317536
90	0x3e8f7098	0.2801559
91	0xbe8ce5cf	-0.2751908
92	0x3e83b3e4	0.25723183
93	0xbe968076	-0.29394883
94	0xbe76764a	-0.24068561
95	0x3e9d4dde	0.3072347
96	0xbe74899c	-0.23880619
97	0x3eaefb15	0.34175935
98	0xbe8a6c78	-0.2703588
99	0x3e8d4821	0.27594092
100	0x3e9be0d4	0.30444968
101	0xbe9d036e	-0.3066668
102	0x3e4d2f8b	0.20037667
103	0x3ea6c129	0.32569245
104	0xbe91292d	-0.28351727
105	0xbe76bbd6	-0.24095091
106	0x3e09b74f	0.13448833
107	0x3ea67e9f	0.3251848
108	0x3e93c05c	0.28857696
109	0xbe9c9cc2	-0.30588347
110	0xbe920d1c	-0.28525627
111	0x3eb00c22	0.34384257
112	0xbea67b59	-0.32515982
113	0xbe8b4b01	-0.2720566
114	0x3e565140	0.20929432
115	0x3e9f5878	0.31122184
116	0xbea5dafe	-0.3239364
117	0x3e9b5e4a	0.30345374
118	0x3e8a68f8	0.2703321
119	0xbe8e860f	-0.27836654

running_mean f4 [120]
0	0xc0d70fef	-6.720695
1	0xc0b405bd	-5.6257005
2	0x40b6630d	5.699591
3	0x40bc3d20	5.8824615
4	0x40d4cb0e	6.649787
5	0x40dbd0c3	6.8692336
6	0xc0bb4774	-5.8524723
7	0xc0d79711	-6.7371907
8	0x40adc049	5.4297223
9	0xc0d9630a	-6.7933397
10	0xc0e37520	-7.1080475
11	0xc0b770f4	-5.732538
12	0x40c5b59b	6.1784186
13	0xc0c52c46	-6.1616545
14	0xc0b4d5f2	-5.6511164
15	0xc0b4f968	-5.655445
16	0xc0de140c	-6.939947
17	0xc0d21f75	-6.56634
18	0x40cfcfa8	6.4940987
19	0xc0d7ac56	-6.739787
20	0x40a66c0e	5.2006903
21	0xc0c55ed7	-6.167827
22	0xc0d32961	-6.598801
23	0xc0eeb113	-7.4591155
24	0x409e7e70	4.9529343
25	0xc0a47e99	-5.140454
26	0xc0e47ea2	-7.140458
27	0x40cbfd38	6.3746605
28	0xc0a71249	-5.220982
29	0x40b3434e	5.601966
30	0x40bfb551	5.9908834
31	0x40bc9728	5.8934517
32	0xc0cd67e9	-6.4189343
33	0x40d20cd5	6.5640664
34	0xc0d5a6d5	-6.676615
35	0xc0bfa0b7	-5.9883685
36	0xc0a9ac10	-5.3022537
37	0xc0a1c2c6	-5.055026
38	0xc0a13008	-5.037113
39	0xc0bd2d58	-5.911785
40	0x40dd0484	6.906801
41	0xc0d0be8c	-6.52326
42	0xc0b0eaea	-5.528676
43	0xc0d52a9b	-6.661451
44	0xc0c2d104	-6.0880146
45	0xc0bf0879	-5.9697843
46	0x40d49c33	6.6440673
47	0xc0e2c284	-7.0862446
48	0x40c51b63	6.159593
49	0x40d47d73	6.6403136
50	0xc0cf739a	-6.4828615
51	0xc0ca5af0	-6.323601
52	0x40d8d9d7	6.776592
53	0xc0da9cfc	-6.831663
54	0xc0bd5ccd	-5.917578
55	0xc0c4df0c	-6.1522274
56	0xc0a332c2	-5.099946
57	0xc0d50663	-6.6570296
58	0xc0bd0864	-5.9072742
59	0xc0cabf47	-6.3358493
60	0x40a66f8b	5.201116
61	0xc0e88b50	-7.267006
62	0xc0e2046c	-7.06304
63	0xc0b95957	-5.7921557
64	0xc0b394f4	-5.6119328
65	0xc0cf913c	-6.486479
66	0x40ae98d4	5.456156
67	0x40d0c7ee	6.5244055
68	0x40c446b5	6.133631
69	0x40cf16df	6.471542
70	0x40c49e8e	6.144355
71	0xc0897038	-4.2949486
72	0xc08874f6	-4.2642775
73	0x40c55412	6.1665125
74	0xc0bf9b93	-5.987741
75	0x40da9594	6.830759
76	0xc0caff5b	-6.3436713
77	0x40be689e	5.9502707
78	0x40ad6c4a	5.419469
79	0x40ccb300	6.3968506
80	0x40b52516	5.660777
81	0x40d62d65	6.6930413
82	0x40c30105	6.0938745
83	0xc09c29e9	-4.880116
84	0x40aef0b2	5.4668818
85	0x40de71ef	6.951408
86	0x40c20dd7	6.0641894
87	0x40d8f873	6.7803283
88	0x40cdcec0	6.431488
89	0xc0d26e70	-6.575981
90	0x40c88d34	6.2672367
91	0xc0d0ac42	-6.5210276
92	0x40c30078	6.093807
93	0xc0c6d3b6	-6.2133436
94	0xc0b08ed4	-5.517435
95	0x40d244df	6.570907
96	0xc0b90c4f	-5.7827525
97	0x40d8165f	6.752731
98	0xc0bcb97c	-5.897642
99	0x40bfba21	5.991471
100	0x40ce3a2e	6.444602
101	0xc0d57bef	-6.6713786
102	0x407df4f7	3.9680765
103	0x40deb33d	6.9593797
104	0xc0c0a280	-6.0198364
105	0xc0c4a2ee	-6.144889
106	0x40abdd5e	5.3707724
107	0x40d8e6ed	6.778189
108	0x40d23e10	6.570076
109	0xc0bf90fe	-5.9864492
110	0xc0b90a66	-5.7825193
111	0x40ea1a48	7.315708
112	0xc0d2d11b	-6.5880256
113	0xc0c2b238	-6.084255
114	0x40af8bb7	5.485805
115	0x40d5e463	6.684129
116	0xc0e9a7bd	-7.301726
117	0x40d3035f	6.5941615
118	0x40c27ad6	6.0774946
119	0xc0cd2a03	-6.4113784

running_var f4 [120]
0	0x431dd691	157.83815
1	0x4308a353	136.63799
2	0x43129177	146.56822
3	0x4314c7c0	148.78027
4	0x4322a030	162.62573
5	0x4330bb3e	176.73141
6	0x43113ed8	145.24548
7	0x432fc0c6	175.75302
8	0x43067952	134.4739
9	0x4332df5e	178.87253
10	0x432df6f6	173.96469
11	0x43257297	165.44762
12	0x431b118d	155.06856
13	0x432c4ce1	172.30031
14	0x430a221f	138.13329
15	0x42fa52d9	125.16181
16	0x432dfb69	173.98207
17	0x4325504e	165.31369
18	0x432d441a	173.26602
19	0x43302811	176.15651
20	0x430feab5	143.91682
21	0x432cf1ba	172.94424
22	0x4322988d	162.5959
23	0x4347b89b	199.72112
24	0x43058fbf	133.56151
25	0x42f04751	120.13929
26	0x43335d4a	179.36441
27	0x431ca9a0	156.6626
28	0x42d248b9	105.14204
29	0x43125880	146.3457
30	0x430a8498	138.51794
31	0x43212b08	161.16809
32	0x43206a12	160.41434
33	0x432db1c8	173.69446
34	0x433c5f07	188.3712
35	0x432be3d7	171.89
36	0x4309eef2	137.93338
37	0x4302224b	130.13396
38	0x42eef145	119.47123
39	0x430e44b5	142.26839
40	0x433c41b5	188.25667
41	0x4330be33	176.74297
42	0x430e0386	142.01376
43	0x43248a2a	164.5397
44	0x431a2aa1	154.16652
45	0x430d4c5f	141.29832
46	0x432f3820	175.21924
47	0x434b83bb	203.51457
48	0x4312cb5e	146.7944
49	0x4332db2e	178.85617
50	0x431c67c2	156.4053
51	0x432600c3	166.00298
52	0x4328c003	168.75005
53	0x4330a1dc	176.63226
54	0x4316cd7d	150.80269
55	0x42f9bf90	124.874146
56	0x42eada57	117.426445
57	0x43269012	166.56277
58	0x4313a1fb	147.63274
59	0x43177ff4	151.49982
60	0x42e3a68c	113.82529
61	0x433ae686	186.90048
62	0x433ce1f3	188.88261
63	0x4321f688	161.96301
64	0x430de5ce	141.89767
65	0x431a981b	154.59416
66	0x430621a2	134.13138
67	0x432370e5	163.441
68	0x4314fd73	148.99004
69	0x4328ea82	168.91605
70	0x431c1841	156.09474
71	0x42c436b6	98.10686
72	0x42cd5652	102.668594
73	0x431ed607	158.83604
74	0x43142229	148.13344
75	0x433119ed	177.10127
76	0x4316e0bf	150.87791
77	0x43250cc7	165.04991
78	0x4307f190	135.9436
79	0x43243444	164.20416
80	0x430af8d7	138.97203
81	0x4334649c	180.393
82	0x431e9f20	158.62158
83	0x430546df	133.27684
84	0x431c3623	156.21147
85	0x43405a38	192.35242
86	0x4306b6a4	134.71344
87	0x433b7960	187.47412
88	0x4321612c	161.37958
89	0x43447de6	196.49179
90	0x4322301a	162.1879
91	0x4333d33a	179.8251
92	0x43202840	160.15723
93	0x43182c4f	152.17308
94	0x42f4bf6a	122.373856
95	0x4329631f	169.38719
96	0x430d3f8a	141.2482
97	0x4337c7c1	183.78029
98	0x431dcfe7	157.81212
99	0x43193005	153.18758
100	0x432b9fac	171.62372
101	0x4334f79f	180.96727
102	0x42cdb3b0	102.85095
103	0x4351a5f0	209.6482
104	0x431dd797	157.84215
105	0x431372e9	147.44887
106	0x42dd366c	110.60629
107	0x432fbe2a	175.74283
108	0x433243e0	178.26514
109	0x4310bf4b	144.74724
110	0x431462b6	148.38559
111	0x43362467	182.1422
112	0x43388bbc	184.54584
113	0x43119dec	145.61688
114	0x42ffc3e4	127.8826
115	0x4335b7d0	181.71802
116	0x4348b45d	200.70454
117	0x433a8f18	186.55896
118	0x4312cfc8	146.81165
119	0x431fb9f6	159.72641

weight f4 [84, 120]
0	0x3e07bd56	0.1325582
1	0x3db3486b	0.08754047
2	0xbe033583	-0.12813382
3	0xbdea53e9	-0.11441786
4	0xbd759dac	-0.05996482
5	0xbe11cfdd	-0.1423945
6	0x3c522827	0.012826956
7	0x3cbd7a0e	0.02312949
8	0xbc01f02d	-0.0079307975
9	0x3d195084	0.0374303
10	0x3df86be2	0.12129952
11	0x3dbe2167	0.09283715
12	0xbd3c7203	-0.046007168
13	0x3e000153	0.12500505
14	0x3cced51a	0.0252481
15	0x3d12ae55	0.035810787
16	0x3dbe5093	0.09292712
17	0x3da62c3f	0.08113908
18	0xbdc1b246	-0.09457831
19	0x3d7b0f2a	0.06129376
20	0xbd3c12a7	-0.045916226
21	0x3e2b53c5	0.16731174
22	0x3df8cdd1	0.12148631
23	0x3dec0f17	0.11526316
24	0x3d855bf7	0.065116815
25	0x3be6ec60	0.007047221
26	0x3e2a2d59	0.16618861
27	0xbd722763	-0.059119593
28	0x3d59e398	0.053195566
29	0xbbdb592a	-0.006693979
30	0xbda084ce	-0.078378305
31	0xbdcc91d8	-0.09988755
32	0x3db08e7d	0.086209275
33	0xbdf5704d	-0.1198431
34	0x3d906414	0.070503384
35	0x3e2ed545	0.17073543
36	0x3c86aac8	0.016438857
37	0x3dac7d2c	0.08422312
38	0x3db96880	0.09053135
39	0xbc66244d	-0.014046741
40	0xbdaf2c6c	-0.08553395
41	0x3dba02db	0.09082576
42	0x3de184cf	0.11011659
43	0x3d2c2a87	0.042032745
44	0x3d86da46	0.06584601
45	0x3db48e4c	0.088162035
46	0xbe2282b8	-0.15870178
47	0x3d253c21	0.040340547
48	0x3c9e7ab4	0.019345619
49	0xbd9d674a	-0.076857165
50	0x3d516471	0.05112118
51	0x3df45b38	0.11931461
52	0x3c4c3d22	0.012465747
53	0x3e1d7d2e	0.15379784
54	0x3c26627c	0.010155316
55	0xbc26fe88	-0.010192521
56	0x3c1d031a	0.009583259
57	0x3d4b0849	0.04956845
58	0x3e00e0e2	0.12585786
59	0x3cb41305	0.021981725
60	0xbdafb716	-0.08579843
61	0x3d772010	0.06033331
62	0x3e2347c5	0.15945347
63	0xbc91766a	-0.01775666
64	0x3cfa7acd	0.030576134
65	0x3cca1aa1	0.0246709
66	0xbd516db6	-0.05113002
67	0xbca5954c	-0.020212792
68	0xbde15d52	-0.110041276
69	0xbe0cdb8f	-0.1375563
70	0x3c93d82d	0.018047417
71	0xbd4b147a	-0.049580075
72	0xbd1df227	-0.038561013
73	0xbd6a48d2	-0.057198353
74	0x3e1961d0	0.14978719
75	0xbd39a91d	-0.045327295
76	0x3d5d80cd	0.054077912
77	0x3d1aef9e	0.037826173
78	0xbd527ffb	-0.051391583
79	0xbdf9d02c	-0.12197909
80	0x3bccbcbe	0.0062480858
81	0xbe268547	-0.16261779
82	0x3b81645a	0.0039487304
83	0x3cc418d7	0.023937626
84	0x3c2701f9	0.010193341
85	0xbe3d5555	-0.18489583
86	0xbce25ed1	-0.027633103
87	0xbdb62541	-0.08893824
88	0x3bf599f2	0.0074951584
89	0x3ca8e0f6	0.020615082
90	0xbce9e232	-0.028550241
91	0x3da31ef6	0.0796489
92	0xbdfb8cb8	-0.12282699
93	0x3b245ad3	0.002507855
94	0xbd509739	-0.050925467
95	0xbbcbfa9d	-0.006224944
96	0xbc13b6b9	-0.009015732
97	0xbcd7716f	-0.026299207
98	0x3cc59d45	0.024122844
99	0xbe04735e	-0.12934634
100	0xbc2d0cf1	-0.0105621675
101	0x3cc821e2	0.02443022
102	0xbc0ae945	-0.008478467
103	0xbe03b2e1	-0.12861206
104	0x3db50d99	0.08840484
105	0xbc2d027f	-0.010559677
106	0xbdac1112	-0.084016934
107	0xbc10865d	-0.008821097
108	0xbe1d4937	-0.1535996
109	0x3c3b96d1	0.011449532
110	0xbc44004e	-0.011962963
111	0xbcdf7bd5	-0.027280727
112	0x3e22a517	0.1588329
113	0xbd46bec7	-0.048521783
114	0xbde103a7	-0.10987025
115	0xbe037882	-0.12838939
116	0x3d433d4c	0.04766588
117	0xbdb05626	-0.086101815
118	0xbdbb8641	-0.09156466
119	0x3d558ce6	0.052136324
120	0xbba5b902	-0.005057455
121	0x3d06b89e	0.03289091
122	0xbc9eb560	-0.019373596
123	0xbc896416	-0.016771358
124	0xbd1b25dd	-0.037877906
125	0xbcd30929	-0.025761204
126	0x3c801c2a	0.01563843
127	0x3d9840d2	0.074342385
128	0xbcf167df	-0.029468475
129	0xbc6b0776	-0.014345041
130	0x3db384bd	0.08765552
131	0xbc6056e7	-0.013692594
132	0xbd89d452	-0.0672995
133	0x3d91aff2	0.07113637
134	0x3d8312e7	0.0640009
135	0x3d0d544c	0.03450422
136	0x3db87481	0.09006596
137	0xbceeee39	-0.029166328
138	0xbdb3a8ce	-0.08772431
139	0x3e36f418	0.17866552
140	0xbbcec5a0	-0.00631018
141	0x3d02eeff	0.031966206
142	0x3cb7e533	0.022448158
143	0x3db0f510	0.08640492
144	0xbca91b5d	-0.02064293
145	0x3da1e507	0.079050116
146	0x3cb5c7f5	0.022190074
147	0xbd0e7498	-0.03477916
148	0xbaf8fbfa	-0.0018995993
149	0xbdc102f2	-0.0942439
150	0xbd52f36f	-0.051501688
151	0xbd5cf807	-0.053947475
152	0x3ddae35f	0.10687899
153	0xbd557f20	-0.05212319
154	0xbce4a883	-0.027912384
155	0x3e12616d	0.14294977
156	0x3d94a7a3	0.07258537
157	0x3d9c856e	0.07642637
158	0x3c05538b	0.008137594
159	0xbd457509	-0.048207317
160	0xbd790eb5	-0.06080504
161	0xbb91fa1c	-0.004454864
162	0xbd812154	-0.06305185
163	0x3c7717d9	0.015081369
164	0x3dbd1061	0.0923164
165	0xbce13545	-0.027491221
166	0xbbfea6b2	-0.0077713365
167	0x3c0ca610	0.008584514
168	0xbdd349a4	-0.1031678
169	0xbdf0a393	-0.11749949
170	0x3d20ab16	0.03922566
171	0x3d5af5b8	0.053456992
172	0xbd0015b0	-0.031270683
173	0x3e03e730	0.1288116
174	0x3cf01ae6	0.029309701
175	0x3dd04a1a	0.10170384
176	0xbaca2d8b	-0.001542495
177	0x3dab9a04	0.083789855
178	0x3dee2b50	0.11629355
179	0x3deacd99	0.11464996
180	0xbd9946b2	-0.07484187
181	0x3d42045b	0.047367435
182	0x3c4cf07d	0.012508509
183	0x3d037bc4	0.032100454
184	0x3d8f8dd5	0.07009474
185	0x3c817672	0.01580355
186	0xbd265572	-0.04060883
187	0xbd04edfb	-0.03245352
188	0xbd05cd0e	-0.03266626
189	0xbdf04996	-0.117327854
190	0xbdd78fc2	-0.105254665
191	0x3d005fe8	0.031341463
192	0x3c64a994	0.013956446
193	0xbd50edd9	-0.05100808
194	0x3dfe5ad6	0.12419669
195	0xbc7ea6bd	-0.015542683
196	0x3d8c46a9	0.06849415
197	0xbc40aea8	-0.011760391
198	0xbd2d9aa3	-0.0423838
199	0xbdac987f	-0.08427524
200	0xbda5f13b	-0.08102652
201	0xbb8e4384	-0.0043415446
202	0x3ccac66f	0.024752824
203	0x3d23e712	0.040015288
204	0xbc8ee935	-0.017445186
205	0xbbd92258	-0.0066264085
206	0x3c697c89	0.014250883
207	0xbd92c115	-0.07165734
208	0xbc48bcae	-0.012252016
209	0x3cffee61	0.031241598
210	0x3d05e7e7	0.032691862
211	0xbc6a0c7e	-0.014285205
212	0x3b41712f	0.0029516926
213	0x3cd69e18	0.026198432
214	0x3d38aa75	0.045084435
215	0xbe0c89de	-0.13724467
216	0x3db2d826	0.08732633
217	0xbc683f3e	-0.014175234
218	0x3ddba8b5	0.10725538
219	0xbdfbb4a0	-0.12290311
220	0xbba508c2	-0.0050364444
221	0x3d81bf96	0.0633537
222	0x3aba6d9e	0.0014223342
223	0x3c1193b4	0.008885313
224	0xbc080da1	-0.008304031
225	0xbd160899	-0.036629293
226	0xbd9e4a7d	-0.07729051
227	0xbd98868a	-0.07447536
228	0xbc6833d5	-0.014172514
229	0xbc0a2482	-0.008431556
230	0x3d559ec7	0.052153375
231	0xbd0e038a	-0.034671344
232	0xbd213b90	-0.039363444
233	0x3dae7554	0.08518472
234	0xbd2a9a00	-0.041650772
235	0xbd959046	-0.073029086
236	0x3e0f3f8c	0.13989085
237	0xbdd73394	-0.105078846
238	0xbddf2500	-0.10895729
239	0x3d160b47	0.03663185
240	0x3d7164aa	0.05893389
241	0x3cf5fd1d	0.03002792
242	0xbd4c2798	-0.049842447
243	0x3d3c55a1	0.0459801
244	0xbe038aeb	-0.12845962
245	0xbbdf6de4	-0.00681852
246	0x3df4eb11	0.11958898
247	0x3e09a462	0.13441613
248	0x3c944ea0	0.018103898
249	0x3c9777db	0.018489769
250	0x3de2ac0e	0.11067973
251	0x3c1fab0a	0.009745369
252	0xbdc6b749	-0.097029276
253	0x3bb03b1b	0.0053781397
254	0x3d93b032	0.07211341
255	0x3d48366f	0.048880037

bias f4 [84]
0	0x3dbbf0be	0.09176777
1	0xbd79cc95	-0.06098612
2	0x3d9f3ea3	0.07775619
3	0x3d4380c0	0.047730207
4	0xbd2665f5	-0.040624578
5	0xbd615a74	-0.055017903
6	0x3cf836e1	0.030299606
7	0x3da3082c	0.07960543
8	0x3d7ce827	0.061744835
9	0x3d9df8b1	0.0771345
10	0xbd812ba1	-0.0630715
11	0xbd98f596	-0.07468717
12	0x3cc8eac5	0.02452601
13	0x3c9f8864	0.019474216
14	0xbcae7795	-0.021297256
15	0x3d9d5d2d	0.076837875
16	0x3d449734	0.04799576
17	0x3d5c6bcd	0.053813744
18	0xbd9c4177	-0.07629674
19	0xbd067c2a	-0.032833256
20	0xbdb3bb2c	-0.087759346
21	0x3d8e320c	0.069431394
22	0xbd148641	-0.036260847
23	0x3d150269	0.03637925
24	0x3d06e637	0.032934394
25	0x3c9aede0	0.018912256
26	0x3a88079c	0.0010378244
27	0x3d262aec	0.040568277
28	0x3d320b8f	0.043468054
29	0x3c973904	0.018459804
30	0xbd437747	-0.047721174
31	0x3c92c653	0.017916834
32	0x3db7791e	0.08958648
33	0x3da1f95b	0.07908889
34	0xbd4d8625	-0.05017676
35	0x3d8c0ffb	0.068389855
36	0xbd0d7be1	-0.03454197
37	0xbcf2e463	-0.029649919
38	0xbd406b0c	-0.046977088
39	0xbc87b827	-0.016567303
40	0x3dab35d4	0.08359876
41	0xbd403690	-0.046927035
42	0x3c350571	0.011048661
43	0xba87ff20	-0.0010375716
44	0x3c39887c	0.011324044
45	0x3c2c893c	0.010530766
46	0xbd78bbac	-0.060725853
47	0xbcf62b28	-0.030049875
48	0x3d95f70c	0.07322511
49	0x3cb3d0fd	0.02195024
50	0xbcb77bc7	-0.022397889
51	0xbd3bf317	-0.045886125
52	0xbb8fa2b9	-0.0043834117
53	0x3d09aaa9	0.03361002
54	0xbcb750b5	-0.022377351
55	0xbdae28f5	-0.08503906
56	0xbb1c593e	-0.0023856903
57	0xbd333bb9	-0.043758128
58	0xbd5e4a0d	-0.05426984
59	0xbb6bbfc1	-0.0035972449
60	0xbda9c281	-0.08289052
61	0xbbf1775a	-0.007368964
62	0xbd7ced33	-0.06174965
63	0xbc5cea24	-0.013483558
64	0xbd05585b	-0.032554965
65	0x3d75160c	0.05983548
66	0x3d8c1b57	0.06841152
67	0xbd96c7ac	-0.07362303
68	0xbd930e3d	-0.0718045
69	0x3da24239	0.07922787
70	0x3c82bc18	0.01595883
71	0xbd92b859	-0.07164068
72	0xbdaee46a	-0.0853966
73	0x3dba989f	0.091111414
74	0xbac7d495	-0.001524585
75	0x3d1df7b6	0.038566314
76	0xbd49cf41	-0.04926992
77	0x3d7dcae9	0.06196109
78	0x3c99bfd2	0.018768225
79	0xbc9ff2b4	-0.01952491
80	0xbb382f0a	-0.002810421
81	0x3da46b87	0.08028322
82	0xbdb770a9	-0.08957035
83	0x3d0491e0	0.03236568

weight f4 [84]
0	0x3fcb0346	1.5860374
1	0x3faab075	1.33351
2	0x3fc4ca58	1.537425
3	0x3fb9ef96	1.4526241
4	0x3fbfbcac	1.4979453
5	0x3fbd73f8	1.4801016
6	0x3fc5abaa	1.5443013
7	0x3fc7eac2	1.5618517
8	0x3fbd6944	1.479775
9	0x3fafe5ca	1.3742001
10	0x3fb7989a	1.4343445
11	0x3fac4a24	1.3460126
12	0x3fb023dc	1.3760943
13	0x3faee80a	1.3664563
14	0x3fc40c76	1.5316303
15	0x3fa899e5	1.3171965
16	0x3fc45899	1.5339538
17	0x3fcac790	1.5842152
18	0x3fae2f3e	1.3608167
19	0x3fc3fe28	1.5311937
20	0x3faf0d1b	1.3675874
21	0x3fc0c7a3	1.5060924
22	0x3fafdacd	1.3738648
23	0x3fc117e3	1.5085415
24	0x3fbe124e	1.4849336
25	0x3fafb4ba	1.3727028
26	0x3fc81799	1.5632201
27	0x3fc2757c	1.5192103
28	0x3fb79732	1.4343016
29	0x3fbdc184	1.4824681
30	0x3faa153b	1.3287729
31	0x3fb77c0a	1.4334729
32	0x3fb0482b	1.3772024
33	0x3fc8ad8b	1.5677961
34	0x3fc07bdb	1.5037798
35	0x3fc1d4c8	1.5143061
36	0x3fbff709	1.4997264
37	0x3fb46a5f	1.4094962
38	0x3fb0f597	1.3824948
39	0x3fc699a0	1.5515633
40	0x3fafc57a	1.373214
41	0x3fbdfad5	1.4842173
42	0x3fbe29e8	1.4856539
43	0x3fb4849f	1.4102973
44	0x3fc87664	1.566113
45	0x3fc1236d	1.5088936
46	0x3fc72efe	1.5561216
47	0x3fb0a764	1.3801084
48	0x3fccf9bc	1.6013713
49	0x3fbcb123	1.4741558
50	0x3fbcbee3	1.4745754
51	0x3fb9b69e	1.4508855
52	0x3fa8a663	1.3175777
53	0x3fb40564	1.4064145
54	0x3fc1c423	1.5137981
55	0x3fc8815e	1.566448
56	0x3fb7c071	1.4355603
57	0x3fc151d2	1.5103095
58	0x3fb8b962	1.4431574
59	0x3fc01cad	1.5008751
60	0x3fb3199c	1.399219
61	0x3fba5e9c	1.4560122
62	0x3faa433f	1.3301772
63	0x3fb3e018	1.4052763
64	0x3fae9f8d	1.3642441
65	0x3fc3e0c5	1.5302969
66	0x3fcb11ab	1.5864767
67	0x3fb42196	1.407275
68	0x3fcbbd9b	1.5917238
69	0x3fc1a211	1.5127584
70	0x3fb33b73	1.4002517
71	0x3fb2bc51	1.396372
72	0x3fb5e041	1.4209062
73	0x3faf2830	1.3684139
74	0x3faae893	1.3352226
75	0x3fbc47cf	1.4709414
76	0x3fc6d9d6	1.5535228
77	0x3fbf3ec6	1.4941032
78	0x3fca7215	1.5816065
79	0x3fc2d508	1.5221262
80	0x3fae8796	1.3635128
81	0x3fb131fd	1.384338
82	0x3fb7313a	1.4311898
83	0x3fcceae5	1.6009184

bias f4 [84]
0	0xbdd9c406	-0.10633092
1	0xbd9cd9ef	-0.07658755
2	0xbdd3c5a2	-0.1034043
3	0x3d7325cf	0.05936223
4	0x3d6ead3c	0.058270678
5	0x3d73444b	0.0593913
6	0x3d774a00	0.060373306
7	0xbded54e8	-0.1158846
8	0x3d73106b	0.05934183
9	0xbdb31e36	-0.08745997
10	0xbdc31888	-0.09526163
11	0xbda897da	-0.082320884
12	0xbdaed85a	-0.085373595
13	0x3d5d9249	0.054094587
14	0x3d82dc38	0.0638966
15	0xbd988d0a	-0.07448776
16	0xbdde6448	-0.10858971
17	0x3d6f8136	0.058472835
18	0xbda9e369	-0.08295328
19	0xbddf8d90	-0.10915673
20	0x3d61a6c5	0.055090684
21	0xbdd7cca2	-0.105370775
22	0xbdae7047	-0.08517509
23	0x3d82b3e6	0.06381969
24	0x3d79beb2	0.060972877
25	0x3d671ba4	0.056422845
26	0xbdf3db3d	-0.11907051
27	0xbddca43b	-0.10773512
28	0xbdbb25e9	-0.0913809
29	0xbdd113bb	-0.102088414
30	0xbd9fa461	-0.07795025
31	0x3d6c241f	0.057651635
32	0xbda81918	-0.08207911
33	0x3d8cf9f4	0.06883612
34	0xbdd5af69	-0.104338475
35	0xbddd0f27	-0.10793906
36	0xbddda249	-0.10821969
37	0xbdb826d2	-0.089917794
38	0x3d5c5879	0.05379531
39	0x3d84c61b	0.06483098
40	0x3d5a7743	0.053336393
41	0xbdc524d1	-0.09626163
42	0xbdcdf78f	-0.10056984
43	0xbdbcb96b	-0.09215053
44	0xbdeb21b1	-0.114810355
45	0x3d66f02f	0.0563814
46	0x3d825b37	0.06365054
47	0x3d5c4004	0.053771988
48	0x3d79c493	0.060978483
49	0x3d7b977f	0.061423775
50	0xbdcfd6ac	-0.10148367
51	0x3d63ebd1	0.055644814
52	0xbd9b93e6	-0.07596569
53	0xbdb68a99	-0.08913154
54	0xbdd9d951	-0.10637153
55	0xbde9a4af	-0.11408364
56	0xbdbb4697	-0.09144323
57	0x3d7d568b	0.061850112
58	0xbdbf5540	-0.09342432
59	0x3d6bb4d3	0.057545494
60	0x3d54650a	0.05185417
61	0x3d5f16b2	0.054465003
62	0xbd9fe77e	-0.078078255
63	0x3d58ef31	0.052962486
64	0xbda3f4e4	-0.080056936
65	0xbddcdce9	-0.10784323
66	0x3daa8571	0.08326233
67	0x3d6f8344	0.058474794
68	0x3d8be9f5	0.06831733
69	0x3d693d30	0.05694312
70	0xbdb33eb6	-0.087521955
71	0xbdb39a75	-0.08769695
72	0x3d653c8a	0.055965938
73	0xbdadf15a	-0.084933
74	0xbda1c718	-0.07899302
75	0x3d71ca96	0.05903109
76	0xbdde6f4f	-0.10861074
77	0xbdcc83d8	-0.09986085
78	0x3d947102	0.07248117
79	0x3d86f1a1	0.06589056
80	0xbdaecc8a	-0.085351065
81	0x3d6cc1f5	0.05780216
82	0x3d71fb76	0.059077702
83	0xbdf9d01a	-0.12197895

running_mean f4 [84]
0	0xbde80190	-0.11328423
1	0xbdfdc547	-0.12391143
2	0x3ebea744	0.3723699
3	0xbe5ab285	-0.21357162
4	0x3e4683d0	0.1938622
5	0x3eef48f3	0.46735343
6	0x3ecc229e	0.3987016
7	0x3d64dd57	0.05587515
8	0xbdf83a7c	-0.1212053
9	0xbe81fefb	-0.25389847
10	0xbf0898f3	-0.5335838
11	0xbf8fc248	-1.1231165
12	0x3dfac178	0.122439325
13	0xbeebf42a	-0.4608472
14	0xbdc5fee7	-0.096677594
15	0xbc205049	-0.0097847665
16	0x3ecb824e	0.39747852
17	0x3ecdf79a	0.40227968
18	0xbed436c6	-0.4144804
19	0xbd9e7013	-0.0773622
20	0xbc873ba7	-0.016507937
21	0xbf05a83a	-0.5220982
22	0x3eabc41e	0.33548063
23	0x3e6a3170	0.22870421
24	0x3e4d8e92	0.20073918
25	0xbe5ca22e	-0.21546242
26	0xbf15291e	-0.58265865
27	0xbe519810	-0.20468163
28	0x3e21ec91	0.15812899
29	0xbe518377	-0.20460306
30	0xbf0b9546	-0.5452465
31	0xbd7a5e82	-0.061125286
32	0x3eb96122	0.3620692
33	0xbed47389	-0.41494396
34	0x3e0aacbe	0.13542458
35	0x3e9e2d2d	0.3089384
36	0xbedb2e9c	-0.42808998
37	0xbead0ff9	-0.3380125
38	0x3e2c01a5	0.16797502
39	0xbee4a038	-0.44653487
40	0xbe3e14ba	-0.18562594
41	0xbed007ab	-0.4063085
42	0x3f363146	0.71168935
43	0x3d862de7	0.06551724
44	0xbf1505d5	-0.58212024
45	0xbe2729bd	-0.16324516
46	0xbb4732cd	-0.003039527
47	0x3ebb76f0	0.3661418
48	0xbd66f94e	-0.0563901
49	0xbe8d727e	-0.27626413
50	0xbd15f7e8	-0.036613375
51	0xbeaff5aa	-0.34367114
52	0xbe6d8875	-0.23196585
53	0x3dc59ed4	0.09649435
54	0x3e67328c	0.22577876
55	0xbe2676ac	-0.16256207
56	0xbe17496a	-0.14774099
57	0xbea6eb8b	-0.3260158
58	0x3e42d5a3	0.19026808
59	0xbd5b6f92	-0.0535732
60	0xbee5b688	-0.44865823
61	0x3ee8777e	0.45403665
62	0x3e1337da	0.14376774
63	0x3e7625c9	0.24037851
64	0x3efff2c8	0.49989915
65	0xbde4d216	-0.11172883
66	0xbded12f7	-0.11575883
67	0xbd11b5ff	-0.035573956
68	0x3eb41919	0.35175398
69	0xbd1876c5	-0.037222642
70	0xbd6611f9	-0.056169484
71	0xbe09e1c4	-0.13465029
72	0xbe4e4c89	-0.20146383
73	0x3eb23b40	0.3481083
74	0x3e8ff865	0.28119197
75	0x3f3b8a58	0.7325797
76	0xbc3b60e8	-0.0114366785
77	0x3e3bae4a	0.18328205
78	0xbcde49fa	-0.027134884
79	0xbf1f2501	-0.6216584
80	0x3e1df4d3	0.15425424
81	0xbee6b635	-0.45060888
82	0xbee91f4b	-0.45531687
83	0x3e902de2	0.28160006

running_var f4 [84]
0	0x40022891	2.033726
1	0x3f8c1a3e	1.0945508
2	0x3fbe7725	1.488011
3	0x3faef37b	1.3668054
4	0x3fba7428	1.4566698
5	0x3fb6e21f	1.4287757
6	0x3fce7952	1.6130774
7	0x400b79b8	2.1793041
8	0x3fea7d2c	1.831945
9	0x3fd169c6	1.6360404
10	0x3fcf17e0	1.6179161
11	0x3f99153d	1.1959606
12	0x3fb3ef09	1.4057323
13	0x3fc1f451	1.5152684
14	0x3fecc3c6	1.8497245
15	0x3f9b232c	1.2120109
16	0x3fd77313	1.6831993
17	0x40000794	2.0004625
18	0x3f9b1625	1.2116133
19	0x3ff7e98d	1.9368149
20	0x3f9a9e80	1.207962
21	0x400e1695	2.2201283
22	0x3fb570a2	1.4174998
23	0x3fd089fb	1.6292108
24	0x3fe58910	1.7932453
25	0x3f9fa795	1.2473017
26	0x400a82e8	2.16424
27	0x3ff15365	1.8853575
28	0x3fbcd6e2	1.4753077
29	0x3fdeea81	1.7415315
30	0x3f9bd227	1.2173508
31	0x3fa3296e	1.2747018
32	0x3f95f2a1	1.171467
33	0x3ff1c3dc	1.8887897
34	0x3ffadac4	1.9598012
35	0x3fe74f5b	1.8071092
36	0x4006c673	2.1058624
37	0x3fb06e0b	1.3783582
38	0x3fad0b3e	1.3519056
39	0x3ff69672	1.9264662
40	0x3f8455d6	1.0338695
41	0x3fbafb29	1.4607898
42	0x3fe2192a	1.766393
43	0x3fbda5ae	1.4816186
44	0x400c6028	2.193369
45	0x3fa84bce	1.3148134
46	0x3ff893d1	1.942011
47	0x3f8d1ed0	1.1025028
48	0x3ff889fe	1.9417112
49	0x3fcd5832	1.604254
50	0x3fc6d558	1.5533857
51	0x3fabcfff	1.342285
52	0x3f9c5aea	1.2215245
53	0x3fad07a4	1.3517957
54	0x3fdc0af4	1.7190843
55	0x400d1762	2.2045522
56	0x3f98bf20	1.1933327
57	0x3fd5259c	1.6652102
58	0x3f910f51	1.1332799
59	0x3f8ef017	1.116702
60	0x3f7600f5	0.9609521
61	0x3f8dc2d1	1.1075078
62	0x3f96496b	1.1741155
63	0x3f8d7ca0	1.1053658
64	0x3f699ff9	0.91259724
65	0x3ff4da74	1.9129167
66	0x40137d2e	2.3045154
67	0x3fd544e9	1.6661655
68	0x400a66cb	2.162524
69	0x3fa83638	1.3141546
70	0x3f93fb79	1.1561118
71	0x3f80f422	1.0074503
72	0x3f8b0772	1.0861647
73	0x3f897380	1.0738373
74	0x3f8606c9	1.0470821
75	0x3fa988ce	1.3244874
76	0x3fcf4f90	1.6196156
77	0x3fad64da	1.3546402
78	0x400e4f26	2.2235808
79	0x3fe78d22	1.8089945
80	0x3fb84ab3	1.4397796
81	0x3fb02eeb	1.3764318
82	0x3f91e120	1.1396828
83	0x401b13ed	2.4230912
